…
               Lambda()
               RandomHorizontalFlip(p=0.5)
               ToTensor()
               Normalize(mean=[0.5, 0.5, 0.5], std=[0.5, 0.5, 0.5])
           )
[21:56:18.380907] Sampler_train = <torch.utils.data.distributed.DistributedSampler object at 0x7f4a4e7926a0>
[21:56:18.464538] Working with z of shape (1, 16, 16, 16) = 4096 dimensions.
[21:56:18.667370] Loading pre-trained KL-VAE
[21:56:18.667610] Missing keys:
[21:56:18.667667] []
[21:56:18.667718] Unexpected keys:
[21:56:18.667768] []
[21:56:18.667816] Restored from pretrained_models/vae/kl16.ckpt
[21:56:20.707414] Model = MAR(
  (class_emb): Embedding(1000, 1024)
  (z_proj): Linear(in_features=16, out_features=1024, bias=True)
  (z_proj_ln): LayerNorm((1024,), eps=1e-06, elementwise_affine=True)
  (encoder_blocks): ModuleList(
    (0-15): 16 x Block(
      (norm1): LayerNorm((1024,), eps=1e-06, elementwise_affine=True)
      (attn): Attention(
        (qkv): Linear(in_features=1024, out_features=3072, bias=True)
        (q_norm): Identity()
        (k_norm): Identity()
        (attn_drop): Dropout(p=0.1, inplace=False)
        (proj): Linear(in_features=1024, out_features=1024, bias=True)
        (proj_drop): Dropout(p=0.1, inplace=False)
      )
      (ls1): Identity()
      (drop_path1): Identity()
      (norm2): LayerNorm((1024,), eps=1e-06, elementwise_affine=True)
      (mlp): Mlp(
        (fc1): Linear(in_features=1024, out_features=4096, bias=True)
        (act): GELU(approximate='none')
        (drop1): Dropout(p=0.1, inplace=False)
        (norm): Identity()
        (fc2): Linear(in_features=4096, out_features=1024, bias=True)
        (drop2): Dropout(p=0.1, inplace=False)
      )
      (ls2): Identity()
      (drop_path2): Identity()
    )
  )
  (encoder_norm): LayerNorm((1024,), eps=1e-06, elementwise_affine=True)
  (decoder_embed): Linear(in_features=1024, out_features=1024, bias=True)
  (decoder_blocks): ModuleList(
    (0-15): 16 x Block(
      (norm1): LayerNorm((1024,), eps=1e-06, elementwise_affine=True)
      (attn): Attention(
        (qkv): Linear(in_features=1024, out_features=3072, bias=True)
        (q_norm): Identity()
        (k_norm): Identity()
        (attn_drop): Dropout(p=0.1, inplace=False)
        (proj): Linear(in_features=1024, out_features=1024, bias=True)
        (proj_drop): Dropout(p=0.1, inplace=False)
      )
      (ls1): Identity()
      (drop_path1): Identity()
      (norm2): LayerNorm((1024,), eps=1e-06, elementwise_affine=True)
      (mlp): Mlp(
        (fc1): Linear(in_features=1024, out_features=4096, bias=True)
        (act): GELU(approximate='none')
        (drop1): Dropout(p=0.1, inplace=False)
        (norm): Identity()
        (fc2): Linear(in_features=4096, out_features=1024, bias=True)
        (drop2): Dropout(p=0.1, inplace=False)
      )
      (ls2): Identity()
      (drop_path2): Identity()
    )
  )
  (decoder_norm): LayerNorm((1024,), eps=1e-06, elementwise_affine=True)
  (diffloss): DiffLoss(
    (net): SimpleMLPAdaLN(
      (time_embed): TimestepEmbedder(
        (mlp): Sequential(
          (0): Linear(in_features=256, out_features=1024, bias=True)
          (1): SiLU()
          (2): Linear(in_features=1024, out_features=1024, bias=True)
        )
      )
      (cond_embed): Linear(in_features=1024, out_features=1024, bias=True)
      (input_proj): Linear(in_features=16, out_features=1024, bias=True)
      (res_blocks): ModuleList(
        (0-2): 3 x ResBlock(
          (in_ln): LayerNorm((1024,), eps=1e-06, elementwise_affine=True)
          (mlp): Sequential(
            (0): Linear(in_features=1024, out_features=1024, bias=True)
            (1): SiLU()
            (2): Linear(in_features=1024, out_features=1024, bias=True)
          )
          (adaLN_modulation): Sequential(
            (0): SiLU()
            (1): Linear(in_features=1024, out_features=3072, bias=True)
          )
        )
      )
      (final_layer): FinalLayer(
        (norm_final): LayerNorm((1024,), eps=1e-06, elementwise_affine=False)
        (linear): Linear(in_features=1024, out_features=32, bias=True)
        (adaLN_modulation): Sequential(
          (0): SiLU()
          (1): Linear(in_features=1024, out_features=2048, bias=True)
        )
      )
    )
  )
)
[21:56:20.708361] Number of trainable parameters: 426.357792M
[21:56:20.895224] base lr: 1.00e-04
[21:56:20.895432] actual lr: 3.91e-07
[21:56:20.895494] effective batch size: 1
[21:56:20.906296] AdamW (
Parameter Group 0
    amsgrad: False
    betas: (0.9, 0.95)
    capturable: False
    differentiable: False
    eps: 1e-08
…
